classifier/mlp_2_conv_2_linear_3.pt (torch, 527639 bytes, 24 tensors)

conv1.weight f4 [6, 3, 2, 2]
000000 16 38 83 bc 18 ed 0b 3c 07 eb 8a 3c da 16 d3 bd
       -0.016017955 0.008540414 0.016957773 -0.10307093
000010 2d de 9d bc e4 e7 c7 bc f2 e6 24 3e 47 2e 05 3e
       -0.01927098 -0.024402566 0.16103724 0.13005935
000020 e0 f1 83 be 97 3a b2 3d 51 3d 8c be 6c 69 af be
       -0.25770473 0.087025814 -0.2739053 -0.34260118
000030 15 85 94 be 6e 44 a4 be af ab 92 bd 0d 3c 79 be
       -0.29007784 -0.32083458 -0.07161652 -0.24339314
000040 50 5e 04 3e c4 b7 39 3e 67 90 8a bd 12 0e 7f be
       0.12926602 0.18136507 -0.06765824 -0.24907711
000050 61 25 0c be d1 03 35 be 45 4b 26 3e 26 b0 15 3e
       -0.13686134 -0.17677237 0.1623965 0.14617977
000060 64 80 65 be 4d 42 8e 3e fe f0 00 3e 51 78 8d 3b
       -0.22412258 0.27784958 0.12591931 0.0043173213
000070 b6 9e 73 3e 39 84 d9 bd 5e 33 b5 3d 30 99 d9 3d
       0.23791012 -0.106209226 0.08847688 0.10624921
000080 d8 12 57 3e 97 e7 c9 3d 9b 70 ec bc 9f ab e9 bd
       0.21003282 0.098586254 -0.028862288 -0.11409687
000090 c1 86 0b be 81 c4 c0 bd 39 55 27 3d 27 bc e1 3d
       -0.13625623 -0.0941248 0.04085276 0.11022215
0000a0 37 40 30 3e bb de 4a be 92 dc 17 3f 78 fc 8b bd
       0.17211996 -0.19811527 0.5932094 -0.06835264
0000b0 3f b7 10 3d c4 22 c9 bd 3d b5 48 3e 7e aa 38 be
       0.035331007 -0.09821084 0.19600387 -0.18033788
0000c0 af fb 81 be 5f fb 58 3e cc 44 7e 3d 76 60 25 3e
       -0.25387332 0.2118964 0.06207733 0.16150078
0000d0 cd a2 a8 bd f7 77 3d 3e fa a8 77 3e ea 95 51 3e
       -0.08234177 0.18502794 0.24185553 0.20467344
0000e0 33 39 1f bd ee 14 48 bd 8b 96 c4 3d 81 2a a6 3d
       -0.03887291 -0.048848085 0.09599026 0.08113576
0000f0 4a ea 2b bd 57 3d 4c be de cd dd bc ff e7 88 bc
       -0.041971482 -0.19945274 -0.027075704 -0.016712187
000100 fa de a3 3e 40 60 90 3e 1e 49 89 3e 0e c7 c8 bd
       0.32006055 0.28198433 0.26813596 -0.09803592
000110 3e b7 91 be 3d a4 8d be 78 6c ac bd 64 54 0c 3e
       -0.28460115 -0.27664366 -0.08419126 0.13704067

conv1.bias f4 [6]
000000 bb 74 45 3d 4d b7 54 be 83 d7 2c 3d 49 9c 75 3e
       0.048207026 -0.20773049 0.042197715 0.239854
000010 67 65 a6 bd d9 1c 65 3e
       -0.0812481 0.22374286

conv2.weight f4 [12, 6, 2, 2]
000000 18 35 88 bd 47 50 7e be c5 f3 40 3e fc 7c 3d 3d
       -0.06650752 -0.24835311 0.1884299 0.046261773
000010 c7 fc 20 3e d3 66 00 3d eb cf df bd 1f e3 3e 3c
       0.15721427 0.03134806 -0.10928329 0.01165083
000020 e0 7b 2a be 7b d7 2c be 25 e4 f7 bd f5 90 88 3b
       -0.16648817 -0.16879074 -0.12104062 0.004167671
000030 cf f4 b9 be 0e 7e ba bc c4 18 d2 3e cd d2 57 bc
       -0.36319587 -0.022765186 0.4103452 -0.013172817
000040 b2 60 90 bd a5 99 54 be e7 18 27 be 43 3a 35 be
       -0.07049693 -0.20761736 -0.16318093 -0.17698006
000050 b8 90 8e 3e 50 e0 80 bd 6d fb 3e 3e 3b cf 7b be
       0.27844787 -0.06292784 0.18650599 -0.24590771
000060 b6 bf 0b 3e 20 96 5e 3e b9 8d 15 3e ba c6 ea 3d
       0.1364735 0.21736956 0.14604844 0.11463685
000070 51 c0 98 3c aa 3f 87 3c e6 51 02 be f5 02 c1 bd
       0.018646391 0.01650985 -0.12726554 -0.09424392
000080 00 9f 04 be af 83 2e be 70 50 00 3e b8 4f 21 3d
       -0.12951279 -0.17042421 0.12530684 0.039382666
000090 a3 26 20 be 14 0d 7d ba 4c b3 c9 bc 9b ed b1 be
       -0.15639739 -0.0009653133 -0.024621628 -0.3475159
0000a0 d4 9d c2 3c 49 5c a3 3c 58 26 78 bd 7c 6d 7c bc
       0.023756899 0.019941466 -0.060583442 -0.0154069625
0000b0 79 45 99 bd 32 97 a6 bd c9 f6 7a be fc 5f ae bd
       -0.07483954 -0.08134307 -0.24508204 -0.08514401
0000c0 f7 c1 5f 3d b3 91 a4 3d 96 28 50 3e f0 1f 00 be
       0.05462834 0.080356024 0.20327982 -0.12512183
0000d0 bd 2b 2f be 0c b7 15 3e 0a c7 8d be 17 29 b8 bd
       -0.17106529 0.14620608 -0.27690917 -0.08992212
0000e0 b3 96 27 be fd 58 43 3d f0 1f 43 bc 9a 63 04 3d
       -0.16366081 0.047692288 -0.01190947 0.03232155
0000f0 c0 60 2c 3e a3 bd 8c 3d 51 aa cd 3d b9 1b 10 be
       0.16833782 0.06872108 0.10042251 -0.14073075
000100 3e e1 79 3c 0e 5d cd 3d 3c c2 0e 3e e9 0e a1 3d
       0.015251456 0.100275144 0.13941282 0.07864172
000110 b6 4c b3 3e f9 25 d8 bb cd 94 13 be c1 c3 8c be
       0.35019463 -0.0065963236 -0.14412232 -0.27493098
000120 50 b9 09 3e 2d 64 2c 3d 14 be 4b 3e 9f 37 bc bd
       0.13449597 0.042087723 0.19896728 -0.091902964
000130 b8 1d c1 bd 20 b5 e9 3d 80 00 15 be 99 eb a5 ba
       -0.094294965 0.114115 -0.14550972 -0.0012658715
000140 a7 bf 35 3e bb d5 bb 3b 49 b6 4f be 79 07 08 3e
       0.17748891 0.0057322658 -0.2028438 0.132841
000150 51 04 aa 3d 53 55 7a be 8c d3 b6 3e 39 c3 a6 be
       0.083016045 -0.24446611 0.35708272 -0.32570818
000160 08 e2 1a 3e 13 35 ed bd e3 2c 33 3e ca bf 1b be
       0.15125287 -0.11582389 0.17497592 -0.1520988
000170 15 41 92 3d 69 8f 6f bd e9 c5 82 be 77 73 0f be
       0.0714132 -0.058486376 -0.25541618 -0.1400889
000180 32 3f 4e 3e c8 12 eb bd ec b1 30 be 0e 5d bd 3c
       0.20141295 -0.114781916 -0.17255372 0.023115661
000190 58 9e 5c bc 55 50 f4 3d 2e a8 fb 3d c2 47 8f 3d
       -0.0134654865 0.119293846 0.12287937 0.069961086
0001a0 80 62 aa 3d 20 cc da bc 57 0f 09 3e 85 b6 18 3d
       0.08319569 -0.026708663 0.13384758 0.03728344
0001b0 ee 24 8c be 8a d7 4a 3c 94 c1 fd bd 50 b3 59 be
       -0.27371925 0.01238049 -0.12390438 -0.21259809
0001c0 7b a8 e5 3d 2a 9d 15 be 2f 0e b9 3d 71 52 2c 3d
       0.11213776 -0.14610735 0.090359084 0.04207081
0001d0 f6 e5 04 be d5 87 37 bc 4d 03 8e 3d 07 76 6d be
       -0.12978348 -0.0112018185 0.06934223 -0.23189555
0001e0 f2 3a 4e be f4 b8 96 3d 4c b5 2d 3e fa 3b 25 3e
       -0.20139673 0.07359496 0.1696369 0.1613616
0001f0 68 c6 ba bd 70 b1 83 3d 59 4f 00 be 1c dc 28 3e
       -0.09119874 0.06430328 -0.12530269 0.16490215
000200 0b 68 9f bc 5d ea 01 3e 74 64 f7 bd ec d2 c1 3d
       -0.019458791 0.12687059 -0.12079707 0.09464058
000210 43 13 30 3e 1c 24 e4 3d 93 62 b8 3e 92 20 45 3e
       0.17194848 0.111397 0.36012706 0.19250706
000220 d4 40 27 3e f8 db 42 3e 61 37 6e 3d da 70 d7 3d
       0.16333324 0.19029224 0.058158282 0.105195716
000230 df 46 d4 be 62 e9 90 be c0 e0 54 be 6b 62 3a 3d
       -0.4146032 -0.28303057 -0.2078886 0.045504015
000240 18 98 54 3e 07 0c 28 3e 77 2d fd bd 50 44 d9 bd
       0.20761144 0.16410838 -0.12362187 -0.10608733
000250 65 b5 33 be 0c 43 8b 3d da e3 3c 3e 44 d9 cd bd
       -0.17549665 0.067998976 0.18446293 -0.10051206
000260 7c a8 3d 3d 8b 61 ee bd c8 50 b2 bd 09 c7 5f 3c
       0.046303257 -0.116396986 -0.08706814 0.0136582935
000270 e3 3e 15 3f b0 29 21 3d 30 af d0 bb 8d 4c 8e 3c
       0.5829908 0.039346397 -0.00636854 0.017370487
000280 93 6c 8c bd c3 9b 09 bd bb 2e ee bc c0 3c 30 3e
       -0.068566464 -0.03359581 -0.029075017 0.17210674
000290 c3 d4 fe 3d 7b 94 27 3d cd 10 e7 bc ae 21 d7 bd
       0.12442925 0.040913086 -0.028206253 -0.10504471
0002a0 9e ac e2 bc 4a c6 f4 bc 28 e2 19 be 33 ff 39 3d
       -0.0276702 -0.029879708 -0.15027678 0.045409393
0002b0 26 39 a6 bb 66 86 02 be 88 20 e4 3d d2 84 3e be
       -0.0050727306 -0.12746581 0.11139017 -0.18605354
0002c0 48 67 4a 3c f8 d6 1b 3e b0 30 19 be 9d 10 36 3d
       0.012353726 0.15218723 -0.14959979 0.044449437
0002d0 87 ae 11 bd b2 a6 d5 bd ac c0 33 be 90 92 89 bb
       -0.035566833 -0.10432185 -0.17553967 -0.00419838
0002e0 2c 48 0f 3e 47 1f 5c bd 77 a4 da 3d cd 0a 98 bb
       0.13992375 -0.053740766 0.106759004 -0.0046399594
0002f0 1c 90 42 be ad 14 bc 3d ed 63 14 3e e6 16 8a 3d
       -0.19000286 0.09183631 0.14491244 0.06742649
000300 de 62 db 3d 98 4a 48 3e c3 d3 44 bd 89 ef b4 3d
       0.10712217 0.19559705 -0.048053514 0.0883475
000310 68 68 8c be 7e b3 1e be 22 8d 15 be 39 b8 da 3d
       -0.27423406 -0.15498158 -0.14604619 0.10679669
000320 88 fa 0d 3e 7e 85 cb 3d ab bd 33 bc a9 fa 3c 3e
       0.13865101 0.09937571 -0.010970513 0.18454994
000330 3d 62 07 be 80 48 d0 bd 32 8a 1c 3e a2 ca 54 be
       -0.13221069 -0.10170078 0.15287092 -0.20780423
000340 a1 40 77 3d 99 ba 46 be 29 88 47 be 42 3c 11 be
       0.06036437 -0.19407119 -0.19485535 -0.14183143
000350 d6 cc a6 bd fd 41 36 be d8 27 4d 3e 17 8b 63 be
       -0.08144538 -0.1779861 0.2003473 -0.22221027
000360 9d 44 3a 3e 91 9a 8f 3d f9 7f 65 3e 0f dd 8c 3d
       0.18190236 0.07011903 0.22412099 0.06878101
000370 e9 59 b2 bd 7c 78 89 3c 4b 16 21 be a1 49 6a bb
       -0.08708555 0.016781084 -0.1573116 -0.0035749453
000380 df ae 04 be 0c f1 cd bd 93 ce a0 3d 64 38 c8 3d
       -0.12957333 -0.10055742 0.07851901 0.09776381
000390 d4 50 5a be 11 ad c5 3c a0 07 de bd 0d a9 82 3e
       -0.21319896 0.024130376 -0.10841298 0.255196
0003a0 2d dc 9c 3c 82 b4 d7 3d 89 fa 31 be 3f 38 2d be
       0.019147957 0.10532476 -0.17380728 -0.16915987
0003b0 85 66 e4 bc 5d 33 12 be b5 e5 2e 3e fe 41 8f 3e
       -0.027880916 -0.14277406 0.17079814 0.27980036
0003c0 4f 94 08 b9 75 64 01 bd 9d 24 d9 3d d9 4d 82 3e
       -0.0001302522 -0.031589944 0.106026866 0.25450018
0003d0 72 15 a2 bb 2e 6c e0 bd 55 43 48 3e b3 ff 0c bd
       -0.004946404 -0.10958134 0.19556935 -0.03442354
0003e0 69 54 2e 3e 91 b3 f1 bd 2c 36 24 3e 9d e5 25 be
       0.17024387 -0.11801828 0.1603629 -0.16200872
0003f0 bb 70 a8 3e df 70 97 be 31 97 a6 be 0d cd fc bd
       0.32898507 -0.295783 -0.32537225 -0.12343798

conv2.bias f4 [12]
000000 89 78 98 3c 32 9a 27 be 27 58 18 3e 59 44 fe 3d
       0.018612163 -0.16367415 0.14877377 0.1241538
000010 9d 88 c4 3d 23 60 75 3e d0 93 02 3a db 42 22 3e
       0.095963694 0.23962454 0.0004981132 0.15845816
000020 da f7 e1 bd 68 6e cd bd 70 29 20 bc d1 ea 38 be
       -0.11033602 -0.10030824 -0.0097755045 -0.18058325

layer1.weight f4 [216, 192]
000000 26 51 f7 bd 06 7d 5a be d3 08 16 3e 08 1f 3f bd
       -0.12076025 -0.21336755 0.14651804 -0.046660453
000010 00 a5 bf bc b2 86 3a be 7d 4a ad bd 0c 9c 9e 3d
       -0.023394108 -0.18215445 -0.08461473 0.07744607
000020 ad 66 65 bd 95 b7 62 bd 11 6a 07 bc 4c 2d 0c be
       -0.056006122 -0.05535086 -0.008265034 -0.13689154
000030 82 4a c2 bd 92 50 0c be 63 45 de bc 15 07 52 bd
       -0.094868675 -0.1370261 -0.027132696 -0.051276285
000040 a3 cd 86 3b 9b a6 90 3d cf 87 f4 3a 3e b7 83 3c
       0.0041138693 0.070630275 0.0018656197 0.016078588
000050 d2 a9 98 bb 4a d6 ef 3d c4 56 2e 3e 2e f6 82 3d
       -0.004658916 0.11710794 0.17025286 0.06394611
000060 29 ec e0 ba 86 e1 2d 3d 42 42 03 3e d0 86 2d 3d
       -0.0017160225 0.042451404 0.12818244 0.042364895
000070 09 4f 23 bc 15 1d 0f 3d af 17 0c bd 0e b9 07 be
       -0.009967574 0.034939844 -0.034202274 -0.13254187
000080 27 28 94 be b9 d0 bc 3b a2 8f 39 bc 7b 82 8d bc
       -0.28936884 0.0057621864 -0.011325749 -0.017274132
000090 36 79 82 bd bf 3d a7 3d 85 b6 25 3d cf d4 bb bd
       -0.063707754 0.08166074 0.040457267 -0.091714494
0000a0 cd bc be bd a9 6d 96 3d 4b 0c b1 3d 2a 9c f5 bd
       -0.09313355 0.07345135 0.08644923 -0.119926766
0000b0 88 11 39 be 87 7f 16 bd cb cf 2e 3d 56 fa aa bd
       -0.18073094 -0.036742713 0.042678636 -0.08348529
0000c0 6e d8 81 3c 95 fd ab 3c 4b f8 05 3c 98 51 90 bd
       0.015850272 0.02099494 0.008176873 -0.07046813
0000d0 24 c8 15 bb 0f 37 c6 3d 59 68 4f 3e 93 2f df 3d
       -0.0022854889 0.0967847 0.20254649 0.10897746
0000e0 03 75 b4 bc 9f d4 a2 3d 7c d7 e8 3d b3 89 9c 3b
       -0.022028452 0.079507105 0.113692254 0.004777157
0000f0 55 62 0f bd d0 13 3e 3d 59 9b cf 3a 60 a8 bc bc
       -0.035005886 0.046405613 0.0015839144 -0.023029506
000100 79 1a 80 bd 17 b7 23 be 8d 04 1b be d8 da b7 bd
       -0.06255049 -0.15987812 -0.15138455 -0.08977288
000110 eb ed ec 3b a8 c2 2c be 4b 47 14 bd 43 cc 98 bc
       0.0072305105 -0.1687113 -0.036200803 -0.018652087
000120 71 26 61 bd c4 19 4e bd 28 73 f5 bd a2 6d c9 b9
       -0.0549683 -0.05031754 -0.11984855 -0.0003841939
000130 03 52 d4 bb 3e 9d a5 bd 26 e4 92 bd f4 ce 01 bd
       -0.006479503 -0.08086632 -0.07172422 -0.031691507
000140 a1 a7 27 bc fa d5 1b bd 2e f2 fe 3d d9 f1 5a bd
       -0.010232837 -0.03804586 0.12448536 -0.0534533
000150 ab 3d 19 3d 20 12 0e 3e 88 5d c8 3d 1a 06 3b bd
       0.037412327 0.13874102 0.09783465 -0.045660116
000160 47 9c bc 3d 14 41 47 3d 24 66 26 3e 40 ad b4 3d
       0.09209495 0.048646048 0.16249901 0.08822107
000170 18 cb 4d bd 1c d2 85 bb 3b 5e 26 3d 16 e9 02 3e
       -0.050242513 -0.004083885 0.04061721 0.12784228
000180 07 53 24 3d 7e be a9 bc e4 8d 8b bd 40 dd 0d 3c
       0.040118244 -0.020720717 -0.06814173 0.008658707
000190 92 85 15 bd 55 ac 24 bd 65 43 7f 3d df 3d a5 3d
       -0.036504336 -0.04020341 0.06232013 0.080684416
0001a0 29 a0 75 3d 84 cb b4 3c d6 91 85 3d 87 0d 03 3d
       0.059967194 0.0220697 0.065219566 0.031995323
0001b0 34 b4 52 3d 5f 35 fb 3d fc fd 88 3c 24 8b 0b 3d
       0.051441386 0.12266039 0.016722672 0.03406824
0001c0 37 cf 7f 3c 93 05 00 3c 8b 76 b9 bb cc 5c 7a 3d
       0.015613369 0.007813829 -0.0056598834 0.061123654
0001d0 72 68 79 bb 65 de 90 bd 84 26 79 bd 7e 76 40 3c
       -0.003805664 -0.070736684 -0.060827747 0.011747001
0001e0 ac 57 b8 3c 95 ef 8b bd fd 41 ee bc c0 92 c3 bc
       0.022502743 -0.06832806 -0.0290842 -0.023873687
0001f0 21 03 be 3c 3e b0 85 bb ed 5f 13 3d 52 a4 1a 3d
       0.023194851 -0.0040798476 0.035980154 0.037754364
000200 57 51 8c be 8d a2 66 be 42 e6 ad bd 25 30 0e be
       -0.27405807 -0.22522946 -0.08491184 -0.13885553
000210 4e 5f a3 be 27 f2 07 be b2 aa 0e bd 1a f0 07 bd
       -0.3190865 -0.13275968 -0.034830756 -0.033187963
000220 fa c7 da bd 8f ac bc 3c cf aa df 3d 7c b2 65 3c
       -0.10682674 0.023031501 0.10921251 0.014019605
000230 db d6 3d be a8 39 12 3d 44 50 dd 3c d4 9f 84 bd
       -0.18538992 0.035699517 0.027015813 -0.06475797
000240 96 2d 9d 3c 7d ed db 3c f3 4b d7 3d 3f 2d 5d bc
       0.019186776 0.026846642 0.10512533 -0.013499557
000250 9d 5f 0d 3d 04 31 3f 3d 78 ab ee 3c 2f c1 c2 3c
       0.034515012 0.046677604 0.029134497 0.023773758
000260 62 0f 1b 3d 8c 00 e6 3c df a7 6e bc 35 b9 a5 bd
       0.037856467 0.028076433 -0.014566391 -0.08091966
000270 54 a0 44 3d 71 aa 0d 3d 90 3a 83 3d 53 b0 81 bd
       0.048004463 0.034586374 0.06407654 -0.06332459
000280 ee d6 9d bd 82 73 69 bd 7e 77 96 bd 72 19 0b be
       -0.0770701 -0.056994922 -0.0734701 -0.13583925
000290 83 7d be bc 0c 98 f4 bd 59 71 08 be 24 9c 70 bb
       -0.023253208 -0.11943063 -0.13324489 -0.003671416
0002a0 b1 39 74 3d e2 fb e0 3a e5 d7 56 3d 8e 96 7b 3d
       0.05962533 0.0017164911 0.052451987 0.061422877
0002b0 94 ec a7 3d ec 75 0a bd 51 5e 95 bd 37 fb 3a 3b
       0.081994206 -0.033803865 -0.0729338 0.0028531083
0002c0 d4 80 c4 bc b8 bf 07 3d bc b2 1a bd 30 dd a5 3d
       -0.023987211 0.03314182 -0.03776811 0.08098829
0002d0 0f 9a 11 be c7 94 17 bb 81 cc 74 3d 98 cc aa 3d
       -0.14218925 -0.002312945 0.059765343 0.083398044
0002e0 62 90 9f bb 43 9d 2c 3c d1 1c f1 3c c6 e0 9a 3d
       -0.0048695067 0.010535541 0.029432686 0.075624034
0002f0 fc d3 56 bd a5 1a 21 3d 95 dd 19 3c 21 37 4d 3d
       -0.052448258 0.03933205 0.009391208 0.050101403
000300 a6 ec 07 be 1a d3 91 bd ce 0d bb 3d 1b f0 4a bd
       -0.13273868 -0.071203426 0.091334924 -0.04954539
000310 8b 4b 93 3d 04 c6 95 bd a7 f5 02 3e 54 54 d4 3c
       0.07192143 -0.07313159 0.12789021 0.025919117
000320 2d 8f e2 3d a6 67 65 3c 98 7e de 3d fe 9a 96 3c
       0.11062465 0.0140017625 0.108639896 0.018384453
000330 6f 1f 1a bc 3b c0 56 3d dd 92 29 3e 07 04 94 bc
       -0.009406908 0.05242942 0.1655993 -0.018068327
000340 22 52 7d bd e2 2f b4 3d d7 28 b4 bd d7 18 75 be
       -0.061845906 0.087981954 -0.08796852 -0.23935257
000350 16 94 83 bc 18 5b ae 3e 74 11 b6 3c cd 10 18 3d
       -0.016061824 0.34053874 0.02222512 0.037125397
000360 df f0 a5 bd d7 51 c3 bc 9b 4d 0d be ba 86 2c 3e
       -0.08102583 -0.023842735 -0.13799135 0.16848269
000370 8b 7f 2e be e6 2f 14 be cc 11 c4 bd 02 c7 eb bd
       -0.17040841 -0.14471397 -0.09573707 -0.11512567
000380 c8 28 3b 3d b4 2e 0f 3e 05 56 68 be 52 bb 06 bd
       0.04569319 0.1398266 -0.22689064 -0.032893486
000390 dc 14 a4 3d b9 40 64 3e 6a 07 ea 3c ff e1 d7 bc
       0.08011791 0.22290315 0.028567988 -0.02635288
0003a0 cc f8 cc 3d c2 f1 97 3e 27 f5 83 3e be d5 13 3e
       0.10008392 0.29676634 0.25772974 0.14437005
0003b0 ce a6 6b 3d be 50 0c 3e a1 76 b8 3c 91 b7 16 3d
       0.057532124 0.13702676 0.022517504 0.036796156
0003c0 0e 25 f4 bd 03 f8 29 be e8 1d 82 be 90 9b c7 b9
       -0.1192113 -0.16598515 -0.25413442 -0.0003807214
0003d0 61 30 ec bd 5c d0 6f be 4d 46 7e 3d b8 e5 93 be
       -0.11532665 -0.23419327 0.062078763 -0.288862
0003e0 ff c2 eb bd 56 1a b4 be 37 7d 39 be ae 7e 17 be
       -0.11511802 -0.35176343 -0.18114172 -0.14794418
0003f0 07 3a ad be 80 f0 4d be b5 bc cf be bb b5 6b be
       -0.33833334 -0.20111275 -0.4057366 -0.23018543

layer1.bias f4 [216]
000000 2b 93 82 bc 9a eb 6d 3d 5b 8f 40 3e 2f 3b 97 bd
       -0.015939316 0.058086015 0.18804686 -0.07384335
000010 40 9c 16 bd 8b 4f 1e 3d 1d ad 93 bd f7 a2 f8 3d
       -0.036770105 0.038650077 -0.07210753 0.12140458
000020 4d f6 1e 3d 8f 7c 8b bd d4 4b 28 bd 20 33 91 bd
       0.03880911 -0.06810867 -0.04108794 -0.070898294
000030 07 7a 6f bd 28 e6 5e bd 7b a3 b6 bd f1 c6 5b bd
       -0.058465984 -0.054418713 -0.089179 -0.053656522
000040 31 6b e1 3d 59 53 37 3e 05 7d 3b 3e d3 c1 7b 3d
       0.11006773 0.17902888 0.1830941 0.061464142
000050 17 45 34 3e 6c 2f fd 3d d1 1a 8c 3d ce 14 97 3d
       0.1760448 0.12362561 0.06841052 0.07377015
000060 c4 9d 3c 3e b8 ba 9e bc fa e2 3d 3d d1 14 2e 3e
       0.18419558 -0.019376144 0.04635904 0.17000128
000070 c9 79 be 3d 35 86 63 bc d2 a7 fe 3d dc fb f6 bd
       0.093005724 -0.013886978 0.12434353 -0.12059757
000080 e2 3e 3b 3e eb b7 ec bc fb ec e3 bc cb 06 c9 3c
       0.18285707 -0.028896293 -0.027822962 0.024539372
000090 c4 f0 93 ba 48 2f c1 bd eb 4d 98 3d bf f8 38 3e
       -0.0011286964 -0.09432846 0.07436737 0.18063639
0000a0 eb d0 27 3d d2 a4 83 bd 8d 38 0c 3d db 75 95 bd
       0.040970724 -0.06427921 0.03423362 -0.0729787
0000b0 3e 15 b1 bb b7 df fa bd 30 5c 93 3c 88 b7 8f bd
       -0.0054041436 -0.122497015 0.017988294 -0.07017428
0000c0 b8 ee af 3d 98 39 5e bd 02 cf 38 3c 2f de 6a bd
       0.08590454 -0.054254144 0.011279823 -0.057340797
0000d0 5c 13 b8 bc 7a 48 37 be 7e 00 a3 3d d7 1a d8 bc
       -0.022470169 -0.17898741 0.07959078 -0.026379986
0000e0 47 ce 21 3d d6 55 80 bd c2 a3 cf 3b 1b 82 f1 3d
       0.039503362 -0.06266372 0.00633666 0.11792394
0000f0 fe 72 ef bc 28 da 4e 3d 6a 78 67 bd ef 90 3e bd
       -0.029229637 0.05050102 -0.05651132 -0.04652494
000100 72 5a 41 bd 1d a0 38 3d 91 2d 88 bd a3 17 60 3d
       -0.047205396 0.04507457 -0.06649316 0.05471004
000110 2d 54 c6 3d 24 49 90 3d df e3 33 bd 89 aa 2c bd
       0.09684024 0.070452005 -0.043918487 -0.042154822
000120 0b 2d d2 3c 29 b0 27 bc 1b 62 8a 3d 92 92 e0 3d
       0.025656244 -0.010234871 0.067569934 0.10965456
000130 fe 8c 95 bc fa 18 8f bd 50 15 8e 3d 67 07 bb bd
       -0.018255707 -0.06987186 0.06937659 -0.09132271
000140 19 a5 87 3c 52 04 c4 3d b6 8b 2a bd bd 54 e0 3c
       0.016558217 0.095711365 -0.041637145 0.027384156
000150 2d 6b 3b be d9 90 43 3d bd 43 81 bd 67 a0 2a 3e
       -0.18302603 0.04774556 -0.06311748 0.16662751
000160 aa 45 05 3d 7f ca b4 3c f9 3b f8 3c e9 27 b0 3d
       0.03253714 0.022069214 0.030302035 0.08601362
000170 0f a6 4e bd 19 0f 13 3c a1 73 9e 3d 2f b3 97 3d
       -0.050451335 0.0089757675 0.07736898 0.074072234
000180 5d 62 05 be 4a af 64 3b 57 0f bc 3d 2c 19 a2 bd
       -0.13025804 0.003489452 0.09182613 -0.079149574
000190 c3 f0 5a 3d e4 e2 92 bd 38 ad c2 bd 33 6e cf bd
       0.053452265 -0.07172182 -0.09505695 -0.10128441
0001a0 3f ef 6c bc e2 90 8d 3d 76 3a 04 bd d8 61 3b bd
       -0.014461338 0.069124 -0.032282315 -0.045747608
0001b0 18 31 02 3d 25 e7 45 3e 89 0b e9 bc fe 0e 68 bc
       0.0317851 0.19326456 -0.028447883 -0.014163731
0001c0 dd df 00 3e 84 ed 78 bd 1a c9 22 3e 0d 81 11 3d
       0.12585397 -0.060773388 0.15897027 0.035523463
0001d0 65 58 f8 3c 28 69 d6 bd 23 29 71 3d c5 25 d5 3d
       0.030315587 -0.10469276 0.05887712 0.104075946
0001e0 84 3b 48 3e 34 55 34 bd 32 0c 45 3d 23 0f 04 be
       0.19553953 -0.04402657 0.048107333 -0.12896399
0001f0 b1 55 d5 bd 6a 72 8e bd 09 08 9d bd b4 7d 12 be
       -0.10416735 -0.069554165 -0.07667548 -0.14305764
000200 57 e8 2f bd 0e 9c b1 bd cc 3b ab bd c5 02 29 3e
       -0.042946186 -0.08672343 -0.08361015 0.16504963
000210 f0 fe 43 3e 59 aa 30 3e 8a 77 a3 3d bf e4 70 bd
       0.1914022 0.17252482 0.07981785 -0.0588119
000220 6b d8 8d bd d7 2f ae bd cb d1 62 bd 75 44 19 be
       -0.06926044 -0.085052185 -0.055375855 -0.1496752
000230 3e 14 fb bd fd ea 86 bd 14 36 f1 bc 5d e7 20 be
       -0.1225972 -0.06587789 -0.029444732 -0.15713258
000240 38 a0 1d bd 2e 56 9b bd e1 85 95 bd c1 f4 13 be
       -0.038482875 -0.07584797 -0.07300926 -0.14448835
000250 d9 ec d3 bc d0 95 cf 3c 41 53 a1 bc 6f e6 14 be
       -0.025869774 0.02533999 -0.019693019 -0.14541028
000260 6e 5f 8b bd ec c4 fd 3b 2c 4f b2 3b 55 af 98 3d
       -0.06805311 0.007744422 0.005441567 0.07455317
000270 40 a5 8d bc 26 51 5e bd c3 e5 57 bd 64 86 2d 3d
       -0.017290711 -0.054276608 -0.052709352 0.042364493
000280 3c c7 9c bd 15 db 95 3d c2 48 b9 bd 45 d8 74 bd
       -0.076551884 0.07317177 -0.090470806 -0.059776563
000290 cd 75 ad 3c 20 36 81 bd ae e3 9b bd 25 08 d0 bc
       0.021174336 -0.06309152 -0.07611786 -0.025394509
0002a0 11 da 37 bd a1 8e 10 3d 88 5e 34 3b d9 84 04 3e
       -0.0448857 0.03529227 0.0027522165 0.12941302
0002b0 54 62 3c 3e 8b b3 95 bd dd a0 06 be 0f fc 0a be
       0.18396884 -0.07309636 -0.13147302 -0.13572715
0002c0 3a c9 8c bd 04 68 12 bd 1e b9 51 bb 9c 1e 13 3e
       -0.068743184 -0.03574373 -0.0032001208 0.14367145
0002d0 7e 29 b3 bd 93 81 93 bd 70 46 85 3d 17 af ef bb
       -0.087481484 -0.07202449 0.065075755 -0.0073145735
0002e0 30 84 19 bd e0 61 15 be 59 ef a3 bd 91 0b bd 3c
       -0.03747958 -0.14588118 -0.08004636 0.023076804
0002f0 7d 75 68 3d 72 bf af bd 00 a7 ae 3d 47 09 f6 bd
       0.05675267 -0.08581437 0.085279465 -0.12013488
000300 5e e9 ab 3d cc f7 0f 3e bf ec 96 bb 34 00 a3 bd
       0.08394121 0.14059371 -0.004605859 -0.07959023
000310 49 99 36 3d fa 4f ae bd b3 7f 22 3e 6d f0 15 bd
       0.044579778 -0.08511348 0.15869026 -0.03660624
000320 09 ac 2d bd 3c 54 f4 3c ec df 5a 3d 23 c5 5b bd
       -0.042400394 0.029825322 0.053436205 -0.0536548
000330 29 98 9a 3d 2c 76 37 3d 60 6d 6a 3d 2d 7f 09 3d
       0.075485535 0.04479043 0.057233214 0.03356855
000340 77 72 7d bd a9 c0 74 bd 87 67 15 3e 36 bc ca bc
       -0.06187674 -0.059754048 0.14590274 -0.02474795
000350 b7 05 97 bd c0 27 2d 3b d4 3c 16 3d 0e 4f b1 bd
       -0.07374137 0.0026421398 0.036679104 -0.086576566

layer2.weight f4 [6, 216]
000000 db 28 9a 3d 1e 1e 23 be 97 ec a5 be 9d 3b 1d bd
       0.07527324 -0.15929458 -0.32407066 -0.03838693
000010 2e df 92 3d 02 ef 83 3d 10 fc 24 bc 9b d6 d0 3d
       0.071714744 0.064420715 -0.010069862 0.10197183
000020 37 5d 93 3d 04 ef fb bc 68 48 8c 3d a0 16 a1 3d
       0.07195514 -0.03075362 0.06849748 0.078656435
000030 de 87 c9 be f7 f5 ea 3c 04 4c 60 be 2b 12 19 bd
       -0.3936147 0.028681738 -0.21903998 -0.037370842
000040 16 93 24 bd 99 bb 35 be 47 04 98 bd 68 12 92 3c
       -0.040179335 -0.17747344 -0.07422691 0.017831042
000050 90 5f 23 3d 64 d1 31 bd db c7 20 be ed c1 be 3c
       0.039886057 -0.04341258 -0.15701239 0.02328583
000060 ea d7 90 3c ba b1 a0 bd bc 9f 6f be e5 4c a9 bd
       0.01768108 -0.07846399 -0.23400778 -0.082666196
000070 7d 64 7e bd 20 80 41 3d 51 e4 c4 be c3 80 25 3d
       -0.06210755 0.04724133 -0.38455442 0.040406
000080 7b 1e b4 bd 5a ea c9 bd 87 17 8f be 9a 13 c1 3d
       -0.08794876 -0.09859152 -0.27947637 0.09427567
000090 b2 18 20 bd 72 75 ef bc 39 1c 4d 3d 06 71 78 bd
       -0.03908605 -0.029230807 0.050075743 -0.060654663
0000a0 a3 91 90 bd 3e 9c 76 3d 4d 7f 8b be bc a1 42 bd
       -0.07059028 0.060207598 -0.2724556 -0.047517523
0000b0 7f d2 b9 3d 0d cd 60 be 5b 13 36 3d 85 8b 91 3d
       0.09073352 -0.2195322 0.044452053 0.07106689
0000c0 a1 df a0 3b c8 01 b3 be 14 09 e7 bd c8 a4 a1 bc
       0.004909471 -0.34962296 -0.112810284 -0.019731894
0000d0 1a c5 98 bd d6 9e 63 3d 5e 42 17 be be 48 f3 bd
       -0.07459469 0.0555714 -0.14771411 -0.11879109
0000e0 a1 53 41 3d 02 81 1c 3d ee 90 1f be c7 78 24 be
       0.047198895 0.03820897 -0.1558263 -0.16061698
0000f0 4e c6 3e be c7 d4 a4 bd a3 52 c5 bd de c9 05 3d
       -0.18630335 -0.080483966 -0.09634902 0.03266322
000100 8c 8b f0 bc 33 22 60 bd 55 c8 ad 3d 5b bd 8b 3d
       -0.029363416 -0.054720115 0.08485476 0.06823226
000110 b2 ee 73 be d8 57 9a 3d bf 86 83 bd b6 3d 01 bc
       -0.23821524 0.07536286 -0.06422185 -0.007888248
000120 fb 7f db bd cf a9 9c bd c8 b4 af 3d 4d 33 8c 3d
       -0.1071777 -0.07649576 0.08579403 0.06845722
000130 bd 0b c5 bc a4 50 1a bc 92 48 48 bd f7 b0 e4 3d
       -0.024053449 -0.00941864 -0.048897333 0.11166566
000140 12 31 3c be 7a a3 b9 3d e5 74 f8 3b 3d 3c 37 3d
       -0.18378094 0.09064384 0.0075822943 0.044735182
000150 4d c0 50 3d 6b f3 83 be dd 6a 7a bd 0e 7b ab bd
       0.050964642 -0.2577165 -0.06113707 -0.0837308
000160 10 73 18 be 79 48 eb 3c 2f a4 d1 bd a9 05 a7 be
       -0.14887643 0.028721081 -0.10236394 -0.32621506
000170 65 db 01 3c b7 bb 6d bc d4 0e a2 bd 9c 3b 9f 3d
       0.007925843 -0.014510087 -0.079129845 0.077750415
000180 c2 d8 ae 3a 99 d7 5f bd a5 57 23 be b6 d1 52 bd
       0.0013339745 -0.05464897 -0.15951402 -0.051469527
000190 c5 97 61 be db 4b 7b bd 9a 33 a4 3d 40 50 17 3d
       -0.22030552 -0.06135164 0.08017655 0.036941767
0001a0 25 d9 64 3b 59 de 2b bc 40 ff 52 3d 88 38 98 3d
       0.0034919467 -0.0104900235 0.051512957 0.074326575
0001b0 57 9e f1 bc ed 7d 44 be 62 95 bd 3d cb e7 0d 3d
       -0.029494448 -0.19188662 0.09257008 0.034644883
0001c0 74 f2 87 3d 0d 63 50 3d 80 96 c1 bd d4 21 8e 3d
       0.06638041 0.050875712 -0.09452534 0.06940046
0001d0 25 c4 63 bd 81 1b 91 3d af 8a 2a be f2 82 45 be
       -0.05560698 0.07085324 -0.16654466 -0.19288233
0001e0 01 4d 93 bd b0 6a ac 3d af 23 36 be 45 8c 9c 3d
       -0.07192422 0.084187865 -0.1778705 0.07643942
0001f0 0c a4 a3 3d 01 58 9e be 34 f0 87 bc 87 3d 03 3d
       0.07990274 -0.30926517 -0.01659403 0.0320411
000200 21 1b 40 bd bf c4 76 3c 4c 0a a3 3c e2 0e 85 bd
       -0.046900872 0.015061556 0.01990237 -0.06496979
000210 f8 18 c3 be 84 2a 52 bd 52 e3 72 3d ea 63 31 bd
       -0.38104987 -0.051310077 0.05929882 -0.043308176
000220 b7 5f e7 bc 26 fd de 3d 74 b2 cd bc 6d 2b 57 3d
       -0.028243883 0.10888128 -0.025109507 0.05253165
000230 43 6f 03 3d 73 2a 23 bd fe a8 a2 bc 90 fe bd 3d
       0.03208853 -0.039835405 -0.019855972 0.092770696
000240 14 5d b4 3c a5 a8 82 be 11 0f 84 3d 9d 4b c8 3d
       0.02201704 -0.2551929 0.06448186 0.09780047
000250 b7 0f bf 3d 8b 1c a2 3d ed 8e e6 bc c4 a3 62 3c
       0.09329169 0.079156004 -0.028144324 0.01383299
000260 d1 8d af be fd dc 09 3d 1f a6 38 bd 23 5d d2 bd
       -0.34287885 0.033658016 -0.0450803 -0.10271671
000270 bb 69 08 be c1 0f ee bb 85 f7 8b 3c b7 30 2d 3d
       -0.13321583 -0.0072650616 0.0170858 0.042282786
000280 9f 49 c0 bd 76 c8 31 3d 9f 8a 41 be d0 fc d2 bc
       -0.09389042 0.043404065 -0.18900536 -0.025755316
000290 9f 7c 9d be 01 73 8c bc ad b3 a8 be 1f ff 2d bd
       -0.3075914 -0.017144682 -0.32949582 -0.04247963
0002a0 f8 1a 18 bd 5b 52 34 3d e0 8b de bc 69 0b b0 bd
       -0.037135094 0.044023853 -0.027166307 -0.08595926
0002b0 f4 59 47 bd cb d8 93 be 4f 60 fe bd d7 77 bd bc
       -0.04866977 -0.28876337 -0.12420713 -0.023128433
0002c0 f2 6c 51 bb 30 bf 04 bd e1 0e 3c bd a7 41 9b be
       -0.0031955806 -0.032408893 -0.045912627 -0.30323526
0002d0 bd 35 98 3d a9 21 99 3d 84 05 d7 bd fe df b4 be
       0.07432125 0.07477123 -0.10499099 -0.35327142
0002e0 ec 12 12 bd 62 5e 7d 3d e1 0f 54 bc 7f e3 27 3d
       -0.035662577 0.06185759 -0.012943239 0.04098844
0002f0 67 2f 94 be fc 14 ea 3c 84 6d 6e bd a7 0d 40 3d
       -0.28942415 0.02857446 -0.05820991 0.04688802
000300 7f 19 12 3d b6 94 17 bc 71 cb 1d 3d 37 a8 67 be
       0.035668846 -0.009251764 0.038524095 -0.22622763
000310 1d 8c 6e 3d ae 9c 8c 3d 10 79 91 3d b9 b0 c0 3d
       0.05823909 0.06865822 0.07103169 0.09408707
000320 09 6a 87 bd ef b0 db bd 84 6f d7 bd ef 8e fd 3d
       -0.066120215 -0.10727107 -0.10519317 0.12380778
000330 9c c0 6e be 96 3a a9 3d da d9 77 3d 34 31 1b be
       -0.23315662 0.082631275 0.060510494 -0.15155488
000340 f9 29 e5 be c7 76 f9 bd 2f d9 af 3c 66 e6 7d 3d
       -0.44758585 -0.12180858 0.021465866 0.061987303
000350 2d 5c b5 bc 4d be e6 bc 83 31 d2 bd 21 33 aa 3d
       -0.02213868 -0.028166914 -0.1026335 0.08310533
000360 1c 50 83 3d cf 3b 49 bd 5f 83 63 be 48 db 12 bd
       0.06411764 -0.049129304 -0.22218083 -0.035853654
000370 7e 29 23 bc 2e 23 22 3d 2a 30 97 bd 75 29 e4 bd
       -0.009958623 0.03958433 -0.073822334 -0.1114072
000380 d8 0a 30 3d 82 65 a5 3c 0d 2d 16 3d 66 37 11 bd
       0.04297909 0.020190004 0.036664058 -0.035453223
000390 70 fe d8 be ee 56 31 3d 58 c2 76 bd 76 43 89 3d
       -0.4238162 0.043295793 -0.060243934 0.0670232
0003a0 a0 2c e8 3c 98 fc 60 3d e7 5a 7d 3c db b5 0e bd
       0.028341591 0.054928392 0.015463567 -0.0348414
0003b0 ea 9a a9 3b 1c 7a 5e 3d bd b9 d9 bd 91 32 6d 3d
       0.005175938 0.05431567 -0.1063113 0.057909552
0003c0 a7 4b 55 3d 3c 09 86 be 5c eb ec bc d5 53 2f 3d
       0.0520741 -0.2617892 -0.028920822 0.042804558
0003d0 88 ab 9e 3d 52 7d 8c 3d 06 1d de bd 5d ac 7d bd
       0.07747561 0.068598405 -0.108453795 -0.061931957
0003e0 30 31 c6 bd 60 06 1d bc ae 34 5d be 79 4c ce bd
       -0.096773505 -0.009584039 -0.21602127 -0.1007318
0003f0 3c 14 e2 bc f6 5a 17 bd 18 b2 cd bd f3 d4 17 be
       -0.02759754 -0.03695198 -0.10043734 -0.14827327

layer2.bias f4 [6]
000000 72 62 ac bc f3 56 ba 3d 66 78 79 3d 77 27 d9 bd
       -0.021043036 0.090986155 0.060905837 -0.106032304
000010 96 85 d6 bd a0 90 ef 3d
       -0.10474698 0.11697507

exp_avg f4 [6, 3, 2, 2]
000000 6f 9b 3d 3e 55 52 2d 3e 7d ca 27 3e ee cd 11 3e
       0.18516324 0.16925938 0.16385837 0.14238712
000010 ac ad df 3d 7b ad c6 3d de 3e 8b 3d ce 95 81 3d
       0.10921797 0.097010575 0.067991 0.06327401
000020 19 54 30 3d 04 9e ed 3c f6 b3 b6 3c 4a 59 1d bc
       0.04304895 0.029006012 0.022302609 -0.009603808
000030 6c 6f 90 bd 4c c4 95 bd 7c 37 61 bd 6c 59 79 bd
       -0.07052502 -0.07312831 -0.054984555 -0.060876295
000040 95 5d 5c 3d 2b 65 72 3d 31 ee a4 3d 7f f3 9e 3d
       0.053800184 0.059178513 0.08053244 0.07761287
000050 7d b3 b5 3d 55 52 8a 3d ee 5a c9 3d 0a 72 ab 3d
       0.08872125 0.06753985 0.098317966 0.083713606
000060 00 00 00 00 00 00 00 00 00 00 00 00 00 00 00 00
       0.0 0.0 0.0 0.0
000070 00 00 00 00 00 00 00 00 00 00 00 00 00 00 00 00
       0.0 0.0 0.0 0.0
000080 00 00 00 00 00 00 00 00 00 00 00 00 00 00 00 00
       0.0 0.0 0.0 0.0
000090 07 18 dd 3c 7f 48 0b 3d a4 1e 44 3c 4e 62 f9 3c
       0.026988996 0.034004685 0.011970196 0.030442383
0000a0 5b 28 13 3c 28 a0 bf 3b dc 62 7a bb 2f d3 96 3c
       0.008981789 0.0058479495 -0.0038205897 0.018411247
0000b0 c4 8c 94 3c 4f 61 b0 3c 78 e4 03 3c 11 c6 ae 3c
       0.018133529 0.021530775 0.008050077 0.02133468
0000c0 04 00 00 80 04 00 00 80 04 00 00 80 04 00 00 80
       -6e-45 -6e-45 -6e-45 -6e-45
0000d0 04 00 00 80 04 00 00 80 04 00 00 80 04 00 00 00
       -6e-45 -6e-45 -6e-45 6e-45
0000e0 04 00 00 80 04 00 00 80 04 00 00 80 04 00 00 80
       -6e-45 -6e-45 -6e-45 -6e-45
0000f0 01 13 e7 3d 2a e7 a4 3d 88 5f f7 3d 97 5b d7 3d
       0.112829216 0.080519035 0.12078768 0.10515516
000100 fa e2 32 3d 56 af 37 3d a2 d2 ff 3c 4b b2 8c 3d
       0.043673493 0.044844948 0.031228367 0.06869944
000110 5d 86 97 3d 9d 17 8e 3d db 76 8b 3d c4 44 a4 3d
       0.07398675 0.069380976 0.06809779 0.080209285

exp_avg_sq f4 [6, 3, 2, 2]
000000 54 41 c0 3e 0f b9 c0 3e 10 65 bf 3e 53 16 bf 3e
       0.3754984 0.37641189 0.37381792 0.3732172
000010 fd 86 0c 3e 0a 9c 2a 3e 82 d6 02 3e 15 b4 1a 3e
       0.13723369 0.16661087 0.1277714 0.15107758
000020 6e 7d 05 3e d1 ad 20 3e 2c 85 f8 3d 13 6d 14 3e
       0.13036129 0.15691306 0.121347755 0.14494734
000030 0a 03 02 3e e1 8f 03 3e 55 10 02 3e cc 04 02 3e
       0.12696472 0.12847854 0.12701543 0.12697142
000040 e5 67 3d 3e 6c b4 4a 3e c8 26 2e 3e 2b b8 2f 3e
       0.18496664 0.19795388 0.17006981 0.17160098
000050 30 00 55 3e 1a 10 5d 3e f7 c1 4f 3e ae 9a 4f 3e
       0.20800853 0.21588174 0.20288835 0.2027385
000060 00 00 00 00 00 00 00 00 00 00 00 00 00 00 00 00
       0.0 0.0 0.0 0.0
000070 00 00 00 00 00 00 00 00 00 00 00 00 00 00 00 00
       0.0 0.0 0.0 0.0
000080 00 00 00 00 00 00 00 00 00 00 00 00 00 00 00 00
       0.0 0.0 0.0 0.0
000090 80 38 16 3e 68 76 21 3e ba bc 08 3e 81 56 18 3e
       0.1466999 0.15767825 0.13353243 0.14876749
0000a0 54 e1 14 3d 41 37 91 3d db eb 84 3c 58 ac 5a 3d
       0.036347702 0.07090617 0.016225746 0.053387016
0000b0 02 65 a3 3d 75 82 e4 3d 63 dd 70 3d 4a e3 c1 3d
       0.0797825 0.11157695 0.05880488 0.0946718
0000c0 c8 59 2f 27 24 1e fa 26 e4 9f c9 26 00 e6 6b 26
       2.43348e-15 1.7355404e-15 1.3990515e-15 8.184371e-16
0000d0 b7 af e0 25 05 6d c0 23 f5 62 c5 23 95 63 c0 25
       3.8976875e-16 2.0862853e-17 2.1400693e-17 3.337417e-16
0000e0 04 ea d8 26 b7 a9 aa 26 e5 de 8c 26 03 3c 11 26
       1.5051441e-15 1.1842121e-15 9.774867e-16 5.038831e-16
0000f0 ff df 47 3f 3a 52 4a 3f be 3a 4b 3f 11 99 4b 3f
       0.78076166 0.7903172 0.7938651 0.79530436
000100 28 74 9b 3e 97 34 c3 3e 1f b2 91 3e 21 c5 b8 3e
       0.30362058 0.3812606 0.28456208 0.36087897
000110 82 f5 a7 3e eb f7 c4 3e 7b 56 a4 3e 70 7d c0 3e
       0.32804495 0.38470396 0.3209723 0.375957

exp_avg f4 [6]
000000 71 8c fc bc b7 00 d7 bb 00 00 00 00 6d 25 03 3a
       -0.030828686 -0.0065613645 0.0 0.00050028303
000010 04 00 00 00 23 30 33 bd
       6e-45 -0.04374708

exp_avg_sq f4 [6]
000000 48 2a d1 3c 76 31 4f 3c 00 00 00 00 ea c4 fb 3b
       0.025532857 0.01264607 0.0 0.007683386
000010 53 9c f6 24 00 82 4a 3d
       1.0695032e-16 0.049440384

exp_avg f4 [12, 6, 2, 2]
000000 46 20 45 3d 7d 68 7c bc aa a2 4b 3d b0 90 f4 3b
       0.04812648 -0.015405771 0.049715675 0.007463537
000010 d8 fb f3 3d e4 ad dd 3d fd 45 ba 3d 51 9e 9a 3d
       0.1191327 0.10824183 0.090953805 0.07549728
000020 00 00 00 00 00 00 00 00 00 00 00 00 00 00 00 00
       0.0 0.0 0.0 0.0
000030 59 81 05 3b 5b 9b 42 bb 94 2e 8b bb 46 03 d2 3b
       0.0020371287 -0.002969465 -0.004247496 0.0064090816
000040 04 00 00 80 04 00 00 00 04 00 00 80 04 00 00 00
       -6e-45 6e-45 -6e-45 6e-45
000050 5d 04 60 bc d4 f3 bd bb fd 0b 40 bc 67 92 fc 3b
       -0.013672915 -0.005796889 -0.011721608 0.007707882
000060 52 02 2b 3c 6c d3 4e 3c 40 b6 c0 3a b9 cf 11 ba
       0.010437565 0.012623649 0.0014702752 -0.0005562264
000070 f1 9c 18 bd dd a6 14 bd 15 ea 0d bd 32 ff 05 bd
       -0.037259046 -0.036291946 -0.034647066 -0.032714076
000080 00 00 00 00 00 00 00 00 00 00 00 00 00 00 00 00
       0.0 0.0 0.0 0.0
000090 df e2 21 bb 11 4b 76 b9 d7 b9 ad bb 6e 75 9b 39
       -0.0024701876 -0.00023488353 -0.005301695 0.00029651396
0000a0 04 00 00 00 04 00 00 00 00 00 00 00 04 00 00 00
       6e-45 6e-45 0.0 6e-45
0000b0 a5 1c 99 3b 94 02 0e 3c 71 d1 f8 3b 55 ae e9 3b
       0.004672604 0.008667607 0.0075933267 0.0071313777
0000c0 24 1a 4a 3e 51 c5 47 3e 1b d3 44 3e 62 54 41 3e
       0.19736534 0.19508864 0.19221155 0.18879846
0000d0 d7 89 ce 3d c5 59 ef 3d 6e 88 a9 3d 93 36 c1 3d
       0.100848846 0.11687044 0.08277975 0.09434237
0000e0 00 00 00 00 00 00 00 00 00 00 00 00 00 00 00 00
       0.0 0.0 0.0 0.0
0000f0 5b 47 54 37 0d 87 3a b6 e4 91 9c 37 01 96 df 36
       1.2652798e-05 -2.779477e-06 1.8664585e-05 6.6633806e-06
000100 00 00 00 00 00 00 00 00 00 00 00 00 00 00 00 00
       0.0 0.0 0.0 0.0
000110 59 53 3c 3c 9a cf 87 3c 00 8a c0 3b 4a 9f b0 3b
       0.011494481 0.016578484 0.005875826 0.0053900825
000120 e6 f8 90 3d 6d 55 83 3d 44 cf 60 3d d4 62 3c 3d
       0.070787236 0.06412778 0.054885164 0.045992687
000130 c0 4a 7a 3d a0 2a 64 3d 60 21 40 3d b0 05 34 3d
       0.061106443 0.055704713 0.04690683 0.043950737
000140 00 00 00 00 00 00 00 00 00 00 00 00 00 00 00 00
       0.0 0.0 0.0 0.0
000150 d6 8c 5c bb b2 cf 5b b9 ba d0 c3 ba 8f 26 29 3a
       -0.003365328 -0.0002096284 -0.0014939525 0.0006452584
000160 00 00 00 00 00 00 00 00 00 00 00 00 00 00 00 00
       0.0 0.0 0.0 0.0
000170 72 06 af 3c 35 48 e0 3c 9e b3 32 3c b5 07 40 3c
       0.021365378 0.027378181 0.010907082 0.0117205875
000180 56 c8 a1 3d 08 ee 9c 3d ec 2c 89 3d 84 7c 8a 3d
       0.07899539 0.07662588 0.06698021 0.06762031
000190 9f 49 e6 3d c1 57 c4 3d c8 01 09 3e de e1 ff 3d
       0.11244511 0.0958705 0.13379586 0.124942526
0001a0 00 00 00 00 00 00 00 00 00 00 00 00 00 00 00 00
       0.0 0.0 0.0 0.0
0001b0 9a 49 d1 3a 08 f4 45 bb d4 b6 32 3b 2a 2f 87 b8
       0.001596737 -0.0030205268 0.0027269619 -6.4460866e-05
0001c0 04 00 00 00 04 00 00 00 04 00 00 00 04 00 00 00
       6e-45 6e-45 6e-45 6e-45
0001d0 ca 69 b2 3c 1c b1 95 3c 72 fe 07 3d f5 57 df 3c
       0.02177896 0.018272929 0.033201642 0.02726362
0001e0 84 20 87 bc 5e d0 5e bc 25 4a 20 bc 88 76 5b ba
       -0.016494997 -0.013599483 -0.009783302 -0.00083718495
0001f0 76 30 da bc 01 e6 23 bc 74 c3 fa bb 9f 12 26 3c
       -0.026634436 -0.010003568 -0.0076526944 0.010136276
000200 00 00 00 00 00 00 00 00 00 00 00 00 00 00 00 00
       0.0 0.0 0.0 0.0
000210 6a 34 7a 3b 88 19 64 3b d7 c4 5c 3b 82 4c bd 3b
       0.0038178214 0.0034805257 0.0033686662 0.0057769427
000220 04 00 00 00 00 00 00 00 04 00 00 80 00 00 00 00
       6e-45 0.0 -6e-45 0.0
000230 57 51 8f ba 6d 50 6c 3b 4e 69 6f 3b 98 81 c9 3b
       -0.0010934275 0.003605868 0.0036531272 0.006149482
000240 2a 40 7a bc 9a dc 7c ba d7 67 b7 bc cc c8 86 bc
       -0.015274087 -0.00096459093 -0.022388382 -0.01645317
000250 ae f4 33 bd 7c d1 6a bd 0c b9 3f bd 5d 16 5c bd
       -0.043934517 -0.057328686 -0.046807334 -0.053732265
000260 00 00 00 00 00 00 00 00 00 00 00 00 00 00 00 00
       0.0 0.0 0.0 0.0
000270 51 67 41 bb c7 c0 a6 bb 02 ef 87 bb ba b4 50 bb
       -0.0029511044 -0.005088899 -0.004148365 -0.0031846003
000280 04 00 00 80 04 00 00 80 04 00 00 80 04 00 00 00
       -6e-45 -6e-45 -6e-45 6e-45
000290 89 80 85 bb 82 3b 9d bb ce d8 6d 3b 4e 8d 72 3a
       -0.0040741605 -0.0047983536 0.0036292556 0.00092526234
0002a0 00 00 00 00 00 00 00 00 00 00 00 00 00 00 00 00
       0.0 0.0 0.0 0.0
0002b0 00 00 00 00 00 00 00 00 00 00 00 00 00 00 00 00
       0.0 0.0 0.0 0.0
0002c0 00 00 00 00 00 00 00 00 00 00 00 00 00 00 00 00
       0.0 0.0 0.0 0.0
0002d0 00 00 00 00 00 00 00 00 00 00 00 00 00 00 00 00
       0.0 0.0 0.0 0.0
0002e0 00 00 00 00 00 00 00 00 00 00 00 00 00 00 00 00
       0.0 0.0 0.0 0.0
0002f0 00 00 00 00 00 00 00 00 00 00 00 00 00 00 00 00
       0.0 0.0 0.0 0.0
000300 54 3c 07 3d e8 eb 18 3d f3 9e 15 3d 8e ff 27 3d
       0.033016518 0.037334353 0.03652854 0.0410152
000310 51 65 3e 3c 30 a4 d0 3c 88 17 a5 3c 3a 60 0e 3d
       0.011620835 0.025468916 0.020152822 0.034759738
000320 00 00 00 00 00 00 00 00 00 00 00 00 00 00 00 00
       0.0 0.0 0.0 0.0
000330 3f a4 33 31 08 0c 95 2e 32 d3 98 b7 0f c4 42 b6
       2.6141291e-09 6.777873e-11 -1.8218157e-05 -2.9022374e-06
000340 00 00 00 00 00 00 00 00 04 00 00 00 00 00 00 00
       0.0 0.0 6e-45 0.0
000350 9f ec d0 38 ff 27 40 3b 0c 56 85 39 a0 fe 1e 3b
       9.962287e-05 0.0029320715 0.00025431847 0.0024260655
000360 a4 c7 c6 bd 8e 31 cd bd 63 3f b3 bd fd 6a c4 bd
       -0.09706047 -0.100192174 -0.087523244 -0.09590719
000370 31 3c 0d be 7f 94 06 be 29 ae 05 be f1 8d 04 be
       -0.13792492 -0.13142584 -0.13054718 -0.12944771
000380 00 00 00 00 00 00 00 00 00 00 00 00 00 00 00 00
       0.0 0.0 0.0 0.0
000390 93 98 56 3b 4e a6 5c bb a1 37 0a bb b9 32 3f bc
       0.003274475 -0.0033668461 -0.0021090286 -0.011669808
0003a0 04 00 00 00 04 00 00 00 04 00 00 80 04 00 00 80
       6e-45 6e-45 -6e-45 -6e-45
0003b0 71 20 c9 bc fe a3 f8 bc 50 ae e0 bc 09 68 ee bc
       -0.024551602 -0.030351635 -0.027426869 -0.029102342
0003c0 f8 93 1d be 91 d9 0e be 6d 6a 06 be c6 71 e3 bd
       -0.15388477 -0.13950182 -0.13126536 -0.11105685
0003d0 9c 09 55 be 20 f3 69 be 3c eb 30 be 15 0d 39 be
       -0.20804447 -0.22846651 -0.17277235 -0.18071397
0003e0 00 00 00 00 00 00 00 00 00 00 00 00 00 00 00 00
       0.0 0.0 0.0 0.0
0003f0 43 71 ed bb e4 ac fc 39 b0 09 17 39 3a 69 66 3a
       -0.007246168 0.00048194 0.00014404091 0.00087894837

exp_avg_sq f4 [12, 6, 2, 2]
000000 e6 6f e6 3c a2 88 97 3c 06 0e 2c 3d c2 ed cc 3c
       0.02812953 0.018497769 0.04200556 0.025015716
000010 47 78 9d 3d 46 aa 8f 3d 01 29 9e 3d ec 78 8b 3d
       0.07688957 0.07014899 0.077226646 0.068101734
000020 00 00 00 00 00 00 00 00 00 00 00 00 00 00 00 00
       0.0 0.0 0.0 0.0
000030 d0 9a 42 3a 47 6a ad 3a d9 60 d6 3a 31 9f 9e 3a
       0.00074235816 0.0013230526 0.0016355767 0.0012101886
000040 f8 0e fc 1e e2 b1 3a 1e 81 8c 39 1d ab c7 88 1e
       2.6687729e-20 9.883543e-21 2.4557185e-21 1.4482141e-20
000050 4e ba 58 3b 3d ec a8 3b 54 1b 6e 3b 69 f4 89 3b
       0.003307003 0.005155115 0.0036332207 0.004210044
000060 3e 85 8c 3d c7 3d 87 3d 37 64 9f 3d b5 20 9b 3d
       0.068613514 0.0660358 0.07782786 0.07574598
000070 4b 9c 05 3e 6a 32 05 3e 28 33 0a 3e d0 a7 0a 3e
       0.13047902 0.13007513 0.13496077 0.13540578
000080 00 00 00 00 00 00 00 00 00 00 00 00 00 00 00 00
       0.0 0.0 0.0 0.0
000090 17 c8 3d 38 9f 99 b1 37 a7 ed 04 39 5b c3 dc 37
       4.524746e-05 2.117158e-05 0.00012677033 2.6317013e-05
0000a0 72 c1 c9 1e 12 86 bf 1f 00 00 00 00 91 5c 0a 20
       2.136171e-20 8.111345e-20 0.0 1.1719682e-19
0000b0 8e 23 e0 3b 0e 61 02 3c 77 32 d4 3b 36 7b e9 3b
       0.006840176 0.00795771 0.0064757424 0.0071252836
0000c0 d0 55 2d 3e da d3 2b 3e d3 b7 36 3e e5 e8 32 3e
       0.16927266 0.16780034 0.17843561 0.17471655
0000d0 d5 1a 07 3d ef e4 18 3d cf 23 d6 3c 2b 18 f2 3c
       0.032984573 0.037327703 0.026140122 0.02955254
0000e0 00 00 00 00 00 00 00 00 00 00 00 00 00 00 00 00
       0.0 0.0 0.0 0.0
0000f0 c3 58 a8 36 eb 19 1c 37 bc 02 df 34 69 53 74 35
       5.0171234e-06 9.304359e-06 4.1538976e-07 9.101846e-07
000100 00 00 00 00 00 00 00 00 00 00 00 00 00 00 00 00
       0.0 0.0 0.0 0.0
000110 07 07 d0 39 5c fd da 39 42 09 21 39 31 fe 31 39
       0.00039678087 0.00041768968 0.00015357605 0.00016974729
000120 59 f2 04 3d 5b e6 e7 3c 5d b9 00 3d 3a 00 f4 3c
       0.032457683 0.028308084 0.031426776 0.029785264
000130 18 0b 44 3d d4 6a 50 3d 49 a8 47 3d 56 66 54 3d
       0.047862142 0.05088313 0.048744474 0.051855408
000140 00 00 00 00 00 00 00 00 00 00 00 00 00 00 00 00
       0.0 0.0 0.0 0.0
000150 46 9a 0d 39 63 ff d8 37 12 af 0b 39 1b 64 e3 37
       0.00013504279 2.586813e-05 0.00013321292 2.7107124e-05
000160 00 00 00 00 00 00 00 00 00 00 00 00 00 00 00 00
       0.0 0.0 0.0 0.0
000170 9d 8c 1a 3b be 27 1f 3b bf da f3 3a 09 35 20 3b
       0.0023582347 0.0024285163 0.001860462 0.0024445674
000180 17 92 14 3e 60 81 19 3e ea 0a 15 3e 5e 78 16 3e
       0.14508854 0.14990759 0.14554945 0.14694354
000190 71 cf 9e 3e b9 78 a9 3e b7 b9 9d 3e 84 71 a6 3e
       0.3101764 0.33099917 0.30805752 0.3250848
0001a0 00 00 00 00 00 00 00 00 00 00 00 00 00 00 00 00
       0.0 0.0 0.0 0.0
0001b0 cf 0f 97 3a 6c 4b bb 3a 9e 9e 2d 3a 93 cf a6 3a
       0.0011525097 0.0014289445 0.0006623062 0.0012726657
0001c0 9c 0b 8d 20 60 12 5d 1f a9 80 98 20 81 a6 a7 20
       2.3894012e-19 4.681377e-20 2.5834942e-19 2.8401083e-19
0001d0 25 05 f9 3c 3f 71 e7 3c 37 df f3 3c 5c 1b f7 3c
       0.03039796 0.028252242 0.029769523 0.030164413
0001e0 4d 40 3a 3d 0a de 56 3d 01 ff 6d 3d 48 d3 86 3d
       0.04547148 0.052457847 0.05810452 0.065832675
0001f0 69 73 20 3e 91 53 30 3e 22 37 2c 3e e6 1e 38 3e
       0.15669025 0.17219378 0.16817906 0.17980537
000200 00 00 00 00 00 00 00 00 00 00 00 00 00 00 00 00
       0.0 0.0 0.0 0.0
000210 64 c7 df 39 df 23 36 3a 2b 2d 60 39 69 c6 a1 39
       0.00042682432 0.0006948094 0.00021379131 0.0003085614
000220 68 90 de 1e 00 00 00 00 ca 58 4b 1f 00 00 00 00
       2.356489e-20 0.0 4.3060367e-20 0.0
000230 e6 12 b1 3b e2 61 9c 3b fb a8 6e 3b 3d dc 56 3b
       0.005403864 0.0047724107 0.0036416638 0.003278508
000240 a3 f0 0a 3c 15 71 3d 3c 9e 0e dd 3b 83 cc 0c 3c
       0.008480224 0.011562605 0.0067461273 0.008593681
000250 0e 2d ca 3c 10 fe e2 3c 14 24 9a 3c d1 9e be 3c
       0.024679687 0.027709037 0.018816032 0.023269089
000260 00 00 00 00 00 00 00 00 00 00 00 00 00 00 00 00
       0.0 0.0 0.0 0.0
000270 14 1d a6 39 a0 22 19 3a 84 70 0f 3a 8f 47 f3 39
       0.00031683652 0.00058416463 0.0005471783 0.00046401887
000280 f5 5a b2 20 30 7e d9 1f 21 64 3c 20 a4 76 30 22
       3.0214563e-19 9.2111834e-20 1.5957349e-19 2.3915256e-18
000290 86 2c 0c 3b 71 98 1d 3b 40 79 f2 3a e7 5a ed 3a
       0.0021388843 0.002404716 0.001849927 0.0018108756
0002a0 00 00 00 00 00 00 00 00 00 00 00 00 00 00 00 00
       0.0 0.0 0.0 0.0
0002b0 00 00 00 00 00 00 00 00 00 00 00 00 00 00 00 00
       0.0 0.0 0.0 0.0
0002c0 00 00 00 00 00 00 00 00 00 00 00 00 00 00 00 00
       0.0 0.0 0.0 0.0
0002d0 00 00 00 00 00 00 00 00 00 00 00 00 00 00 00 00
       0.0 0.0 0.0 0.0
0002e0 00 00 00 00 00 00 00 00 00 00 00 00 00 00 00 00
       0.0 0.0 0.0 0.0
0002f0 00 00 00 00 00 00 00 00 00 00 00 00 00 00 00 00
       0.0 0.0 0.0 0.0
000300 da 26 cc 3c 7b f9 dc 3c 8f 07 e6 3c 3d b3 f4 3c
       0.02492087 0.02697443 0.028079776 0.029870624
000310 e5 2e 7b 3b 14 a5 d2 3b b5 1e b2 3b d1 f4 1d 3c
       0.0038327512 0.0064283703 0.0054357895 0.009640888
000320 00 00 00 00 00 00 00 00 00 00 00 00 00 00 00 00
       0.0 0.0 0.0 0.0
000330 5d 19 9d 32 3e bc 14 2f b9 72 bb 34 ef 2f 2e 33
       1.828874e-08 1.3527399e-10 3.4914936e-07 4.0556127e-08
000340 00 00 00 00 00 00 00 00 ef b6 d7 1e 00 00 00 00
       0.0 0.0 2.283967e-20 0.0
000350 5e 10 10 38 7f f4 a4 38 13 64 62 38 81 9b 04 39
       3.434752e-05 7.86567e-05 5.39758e-05 0.0001264643
000360 41 ba 9a 3d af 5c c2 3d d9 1a 7e 3d e0 b9 a0 3d
       0.07555056 0.09490334 0.062037323 0.07847953
000370 ff 24 7b 3e f6 64 8e 3e 2d 43 71 3e 7b f3 88 3e
       0.24525832 0.27811402 0.23560782 0.2674826
000380 00 00 00 00 00 00 00 00 00 00 00 00 00 00 00 00
       0.0 0.0 0.0 0.0
000390 52 b8 c7 39 39 55 ee 3a 38 26 25 3a 7c 0b 40 3b
       0.00038093567 0.0018183357 0.00062999455 0.002930372
0003a0 4f 02 2d 20 59 35 cd 1e 56 59 51 21 33 5a 19 20
       1.4654434e-19 2.1727283e-20 7.093019e-19 1.2989449e-19
0003b0 45 d1 0d 3c e7 5d 18 3c f3 e0 27 3c 3b 90 36 3c
       0.008655851 0.009299732 0.010246503 0.011142786
0003c0 26 e8 8e 3d 0b 52 93 3d 20 bc 7c 3d 36 45 6b 3d
       0.069778726 0.07193383 0.061702847 0.05743905
0003d0 54 7f 34 3e ce 19 47 3e 3f 5b 1b 3e e8 68 25 3e
       0.17626697 0.19443437 0.15171526 0.161533
0003e0 00 00 00 00 00 00 00 00 00 00 00 00 00 00 00 00
       0.0 0.0 0.0 0.0
0003f0 cd 73 3c 3a c1 bc c2 3a 88 4a bf 3a ad 6d 01 3b
       0.00071888865 0.0014857278 0.0014594356 0.001974921

exp_avg f4 [12]
000000 47 c7 d2 3c d2 12 f6 ba e6 60 75 3d ab 95 85 3c
       0.025729788 -0.001877392 0.059906863 0.016306719
000010 80 e4 c8 3c d8 2d ce 3b a7 d2 49 bc 00 00 00 00
       0.02452302 0.006292086 -0.01231829 0.0
000020 0c 4e 34 3c 2b d1 34 bd 77 56 61 bd 59 10 c6 bc
       0.011004936 -0.04414479 -0.0550141 -0.024177717

exp_avg_sq f4 [12]
000000 1d 34 da 3b c5 ff 23 3c 8c 59 75 3c 5d 1f ba 3b
       0.0066590444 0.010009711 0.014974963 0.0056800083
000010 5d b5 bd 3c 5e 6d 4e 3c 51 ce d5 3a 00 00 00 00
       0.02315777 0.012599317 0.0016312097 0.0
000020 66 95 16 3b ba e5 a3 3c ab 10 70 3c 08 d2 27 3c
       0.0022977232 0.020007003 0.014652411 0.010242946
